model_weights.npz (npz, 35918 bytes, 4 tensors)

hidden_layer_1_w f8 [63, 64]
0.016396632925817528 0.005618087293588466 0.0029005597901890974 0.007955071567393657 0.01585477046070781 0.003546472394387272 0.0069583101613499366 0.005570385914069558
0.007031898414888441 0.014310275711721904 0.012717337093134913 0.01753334050829206 0.012201492116853292 -0.005444693299950758 0.0031630321538932307 -0.019522417078824485
0.00574768530140597 0.0006536066927389452 0.006348570393168316 0.0014295626258040654 -0.003099819853090023 0.01183400584338704 -0.01329974867918213 0.01885756837142973
0.0018197390072056752 -0.012853215575313227 0.006916943468002156 -0.010579841976682196 0.005548282525512181 -0.005148984293520916 -0.006401549679803383 -0.011037430995499671
-0.013306518708632276 -0.004933375739953603 0.004142928898682476 -0.01367265201089507 0.028797801804410956 0.003623131470495896 0.005945176169238932 -0.01020718005344029
-0.004955649504239359 0.01419342631589407 -0.008136093727355721 -0.01500589552490272 0.004505900107032029 -0.006212236821781368 -0.009154183069913498 -0.01601655450736973
-0.008806756100748356 -0.008083779062565776 0.02400108670590222 0.0027835459259113048 0.0229138142838153 0.013439167831579913 0.008634664840562616 -0.0020809015659622914
-0.011147970079472108 0.0032612545520236437 0.0002053859777165684 -0.002665373839375331 -0.0043005528998484015 -0.0037139251065674466 0.0016075432525430083 0.011408399674439075
0.009889708607902946 0.001633820108725677 0.007891360367029617 -0.00421684600509698 -0.028226430278972016 -0.010053273149931482 0.009819802965128528 0.006530725936948748
0.013044359975636105 -0.015699341430542135 -0.005691529959004669 0.009377150422492457 -4.5931988091385104e-05 -0.015689788591608255 0.008709850301212225 0.0010810760537827784
0.005115717443709115 -0.005373819480624832 0.008020208506418727 -0.010461044872747299 -0.019899286500340375 -0.01282093905624158 -0.015513983557315099 2.13241454872614e-05
0.0024627103830560564 -0.011455719339969195 0.004688025261845268 -0.009960101536989808 0.003277751669972634 0.01706229226642494 0.009123172776665812 0.005475173347535825
-0.0034838439436040013 -0.004564805835107938 -0.008029641214951476 -0.01656233135089292 0.023046708192474927 -0.00948680797640151 -0.010465624534163893 0.013298946078624094
0.006640564891228027 0.001372719713125344 0.0024814063244118878 -0.002564494392385327 -0.013425611017952994 -0.003853152836060971 -0.01307005978968334 0.011032260530727948
-0.003068837219276302 -0.007705655190061398 0.00600460848238971 0.008668770084545184 0.0044151542376630595 0.0008971045931950584 0.0012632686983194863 0.001707359341687029
-0.0012616321431335102 0.004697484312052829 -0.013516771721151455 -0.007644447123640722 0.00044972010029585904 0.0024825979444823448 -0.0021778229718517473 -0.01004364919205632
0.0026811463973940917 0.0018293176524691046 0.0011010898752949452 -0.005032260088917063 -0.016710515881810387 -0.016562961522334295 -0.00377178405433869 0.008270389211906887
0.018611650322964593 -0.000761586057136162 -0.0006266889447992573 0.002789817533089747 0.012016584256799091 -0.0071221192568345585 0.008586384119850056 -0.02143187584999051
0.006189518500028381 -0.005582819201196868 -0.003966189415775019 0.008125958786441258 -0.004327459641552247 -0.0009380558206928541 -0.014897248627676137 0.00542063411524502
-0.009630214396231806 0.0018506722383690689 -0.028779513231280508 -0.014887693527617749 0.012299329611788472 0.005370066172710713 -0.02724235826370669 0.011291962648971629
0.001078142779579764 0.0014346144592440404 0.00365322091945913 -0.004104850711542195 -0.0086998239246372 0.011562357723200615 0.002720544357202657 -0.01872248850949103
0.0060741969197351245 0.0018262797413206326 -0.018152687738059545 0.001516535006484544 -0.01483799503024683 0.021046100582659585 0.010265174862527364 0.02931316913477274
-0.000941558027883527 0.026336890805000117 -0.002592528896899037 0.0036892770317267748 -0.0023128226802802882 0.013608424001735698 -0.010124329223241258 0.0002839063502200146
-0.0005403419645976837 0.013890731788437624 0.013432541096033163 0.014399664776435814 0.003086057661510722 0.004932781573868369 -0.001102355800029806 -0.01369608863018976
-0.02156282169333506 -0.09754638748957298 0.000918083264314584 -0.005754172414511526 -0.17464682027101133 0.005305087319262716 -0.17287100093038602 -0.01787133577254964
-0.13576850273461938 0.007489010078542221 0.09412315025408868 -0.01733955359834781 -0.03508936216383962 0.003987174005210555 -0.09416733760470346 -0.0024013089996209043
0.00907612982514605 0.008833762411926873 0.23602591291170985 -0.024743852936051306 0.013767494022428441 -0.07629521957331686 -0.1433495324467529 -0.17516861059941435
0.062050294363935735 -0.00462945640945872 -0.0024160222285610974 -0.0037030370325811354 -0.009496917398730854 0.008826999829350325 -0.11553189932819977 -0.11784432311617643
-0.003310989382487767 -0.21158229809721207 0.01108566671850648 0.00618621014830388 0.24456549446828763 0.05430672796245868 0.003876203639101913 -0.0751687010835997
0.18072853424088323 -0.025055914396044033 -0.23919135402570826 0.20744031261763857 0.017037171804318407 -0.022135542277301818 -0.13143035619738624 0.13705219422632894
0.06364651946558295 0.023075606614117915 0.09560311206876218 0.17870773147807334 0.002442786562786199 -0.0005442614167289252 0.1824831985284102 -0.07898407815700206
-0.02640692316780158 -0.24598589060844214 -0.011927034166731324 -0.1519528084476131 0.012217879925441943 -0.3834573240795088 -0.018466464935239388 -0.0109910465630444
00000000: a83e b968 47ca 903f ef93 12d3 fd02 773f
00000010: edea 0b2e eac2 673f da1d c1a1 bf4a 803f
00000020: 1c12 75a2 3b3c 903f 8ae4 66de 7d0d 6d3f
00000030: e937 4129 5180 7c3f 8581 3b15 f9d0 763f
00000040: c426 88db 7acd 7c3f eabf 6db1 b44e 8d3f
00000050: b1fd 4117 8c0b 8a3f 097e 4a90 42f4 913f
00000060: 4494 d58c 18fd 883f df84 8fba 2c4d 76bf
00000070: e784 07f5 5be9 693f 57d7 913b affd 93bf
00000080: ce16 5b86 e28a 773f cf4f 54af d96a 453f
00000090: 31b0 7063 f500 7a3f e827 6d2e 056c 573f
000000a0: c977 8f1c cb64 69bf 13c9 9f60 6d3c 883f
000000b0: f212 fa0c e63c 8bbf 25df bffd 654f 933f
000000c0: 242c 7ce1 89d0 5d3f a7f2 5a64 c952 8abf
000000d0: 4ccd bbdf f054 7c3f 5628 4b5a e2aa 85bf
000000e0: e5ca efbf cbb9 763f 5565 5ff2 1917 75bf
000000f0: 3cac 4be8 8238 7abf f19d 42e9 ca9a 86bf
00000100: 6de1 6ab5 7240 8bbf b145 64f7 0435 74bf
00000110: dc68 1202 2df8 703f c01c e449 6800 8cbf
00000120: a55a c9c3 2b7d 9d3f 45af 98e5 41ae 6d3f
00000130: 6814 7413 f859 783f a07c 1c84 80e7 84bf
00000140: 297f d108 604c 74bf 9075 c26e 7111 8d3f
00000150: 5439 cf03 a8a9 80bf 3e94 3634 69bb 8ebf
00000160: 2076 9459 c774 723f d8bf c09f 0072 79bf
00000170: de47 41a7 6dbf 82bf 630b 37c7 a466 90bf
00000180: 9214 7ecb 4609 82bf 534e 9d75 3a8e 80bf
00000190: 0d99 e1a9 bd93 983f a19d ffd6 84cd 663f
000001a0: d504 e70b b876 973f 6da4 9392 fe85 8b3f
000001b0: 762d d118 0daf 813f ea0c 8185 f70b 61bf
000001c0: 03d4 4337 bfd4 86bf 08cc a2b4 58b7 6a3f
000001d0: ccee 5c1d 9ceb 2a3f 9e6b 18af b1d5 65bf
000001e0: 5efc f3e0 749d 71bf 2a86 eb5b aa6c 6ebf
000001f0: 97ba 946c 8656 5a3f c1e4 027c 495d 873f
00000200: 3fa5 4d38 0e41 843f 873d cffb bcc4 5a3f
00000210: 7128 9475 5829 803f 8651 f2fa ae45 71bf
00000220: 6a5a b9ab 63e7 9cbf 9e76 2c7b cf96 84bf
00000230: 4406 b5a4 671c 843f 37e5 1765 f6bf 7a3f
00000240: b0dc f05b 00b7 8a3f f039 0df8 7c13 90bf
00000250: 712d 9c70 0050 77bf 0f7b 27d3 5334 833f
00000260: bf5f f217 e314 08bf 3348 87e3 fb10 90bf
00000270: 17f8 9251 78d6 813f 263d e992 5cb6 513f
00000280: 1e65 dcf1 37f4 743f 4e42 c8ae db02 76bf
00000290: 88f6 ef29 e66c 803f 632d e2ac 996c 85bf
000002a0: ea47 ee82 7a60 94bf b6c2 9a4f dd41 8abf
000002b0: 2426 13a0 cbc5 8fbf b86c a61e 285c f63e
000002c0: 6a79 c091 ad2c 643f 20ad 569f 1876 87bf
000002d0: d24d eb32 c033 733f cdff ed32 f665 84bf
000002e0: 8d1b 4387 f1d9 6a3f 77c9 1d0d c778 913f
000002f0: 673a b185 2baf 823f 3647 7ba7 226d 763f
00000300: e12f ab79 268a 6cbf c6da 63bc 8bb2 72bf
00000310: 1fab 5533 d871 80bf 028b fd3d b7f5 90bf
00000320: a958 de67 8e99 973f a540 04d0 d16d 83bf
00000330: 0402 da58 006f 85bf e5e7 d453 7a3c 8b3f
00000340: 2480 8e10 2333 7b3f bc8d 9091 9a7d 563f
00000350: 57b0 5de0 e253 643f 9268 7971 2202 65bf
00000360: 2ae5 0102 e37e 8bbf 851b 5bad a590 6fbf
00000370: ffdf d3ba 79c4 8abf 4f84 71f1 1498 863f
00000380: ed12 cb6f d123 69bf 0aae 9110 f78f 7fbf
00000390: 0414 ead0 4998 783f 19cb 13a0 eec0 813f
000003a0: 9fc2 ebf0 9f15 723f 014d c671 7565 4d3f
000003b0: cdb1 b36f 88b2 543f f584 3e22 2ff9 5b3f
000003c0: de7a d632 abab 54bf df5b e657 ab3d 733f
000003d0: e032 eb63 aeae 8bbf d1c9 45a6 c84f 7fbf
000003e0: 3f17 851f 0d79 3d3f e5a2 619f 6256 643f
000003f0: df3c 19ce 39d7 61bf 6ac0 7fc6 c391 84bf
00000400: 8f8b f682 c5f6 653f 8548 72df b6f8 5d3f
00000410: f73e 4740 4e0a 523f 4e1e 1c08 b59c 74bf
00000420: 81be d8bc 8f1c 91bf 26da 4088 e1f5 90bf
00000430: 6893 2625 01e6 6ebf 6acc 85d9 10f0 803f
00000440: 54cd d8b5 ee0e 933f e0c7 af9a a5f4 48bf
00000450: 2819 e742 0c89 44bf 522d 20e2 abda 663f
00000460: 4701 24a3 269c 883f 5ac0 9454 152c 7dbf
00000470: 549c e2f7 bc95 813f 0077 78d7 3cf2 95bf
00000480: 9cda 9138 2e5a 793f 11cb 379e 02de 76bf
00000490: 2eb5 49dd d93e 70bf 6e2a e4b9 57a4 803f
000004a0: 8fe3 299a abb9 71bf 8068 2d89 fbbc 4ebf
000004b0: f1ff 3fdd 7282 8ebf 4519 fa63 f233 763f
000004c0: c60f 157f 01b9 83bf 717f 522f 4852 5e3f
000004d0: ca1a 7e70 6078 9dbf b80c 8366 707d 8ebf
000004e0: bc16 9013 6430 893f df26 6d29 ecfe 753f
000004f0: c0f0 3bb7 6be5 9bbf 18a7 4792 3d20 873f
00000500: 773e a3fe 0eaa 513f 251f d48b 3581 573f
00000510: 7af4 f80b 5ced 6d3f f200 fa78 3fd0 70bf
00000520: 83f0 e599 36d1 81bf 5551 4962 01ae 873f
00000530: 95fd 5321 6549 663f 0d5a 64ef fc2b 93bf
00000540: 1f66 ead1 41e1 783f 8cd7 c9f0 f8eb 5d3f
00000550: 7c88 ad40 9e96 92bf 6cc8 6310 cfd8 583f
00000560: 731c 25fb 6163 8ebf ece8 d7e6 1b8d 953f
00000570: 9c05 9472 e805 853f b696 1a7b 4504 9e3f
00000580: 9c1f f177 5cda 4ebf fe41 bed2 0ef8 9a3f
00000590: 7e8b 6f5a ed3c 65bf 770e 4f86 f938 6e3f
000005a0: ad78 be38 57f2 62bf 4dea 4cc0 bbde 8b3f
000005b0: c716 4377 10bc 84bf 9b2f 447d 289b 323f
000005c0: 2976 8688 b7b4 41bf 98a3 fd75 be72 8c3f
000005d0: ea56 ad25 8582 8b3f 3224 4e4a 927d 8d3f
000005e0: 1b2f 5a97 ee47 693f a3f5 9b78 6534 743f
000005f0: c20f 0587 9d0f 52bf f28d ffe5 b10c 8cbf
00000600: 0eee ed77 9014 96bf 2e54 1cd0 ccf8 b8bf
00000610: feb1 30cc 7015 4e3f b2bb 5fe5 af91 77bf
00000620: 850a b5b6 d35a c6bf 8357 9e88 c9ba 753f
00000630: 191e b60f a320 c6bf e53a b70a dd4c 92bf
00000640: d039 89bf dc60 c1bf a338 ded5 cbac 7e3f
00000650: 3047 236c 7418 b83f 7c50 87be 75c1 91bf
00000660: 10c5 dc9d 3bf7 a1bf 951f 4bdf da54 703f
00000670: 6314 5dc3 591b b8bf 3fec def3 e8ab 63bf
00000680: ff9e 2f86 8196 823f ae64 4785 6f17 823f
00000690: 6d6f 7bdc 1836 ce3f c1ab 8cdc 7356 99bf
000006a0: 21f9 97c4 2132 8c3f c095 e860 1588 b3bf
000006b0: 99ba e008 4759 c2bf 10b6 e7ce ec6b c6bf
000006c0: 5224 0062 0ec5 af3f 3fb6 073e 56f6 72bf
000006d0: 3095 a80e c4ca 63bf 190f 6dde d455 6ebf
000006e0: 5476 1fad 1e73 83bf c7fa b5dc e313 823f
000006f0: e266 42a1 7f93 bdbf c8a0 cda9 0b2b bebf
00000700: 279f afe3 a51f 6bbf ecb9 5ef5 2015 cbbf
00000710: a52d 1500 15b4 863f efd0 5e24 b656 793f
00000720: aa55 3c10 ec4d cf3f fa61 1a69 17ce ab3f
00000730: 123f 9afb fcc0 6f3f 7d3c d688 413e b3bf
00000740: cd61 02d4 1c22 c73f bd0a 9cf3 41a8 99bf
00000750: 4160 8381 d29d cebf 824a 4877 678d ca3f
00000760: e00f dd3e 3172 913f 1515 a418 b3aa 96bf
00000770: 42e2 c8bc b5d2 c0bf 1f08 0622 ed8a c13f
00000780: 46e1 9b67 234b b03f 66d4 f8be 21a1 973f
00000790: 122d bb0f 7279 b83f 6ece 1e1b e5df c63f
000007a0: 29ab be0c e502 643f 3524 1f7e 98d5 41bf
000007b0: 23df df04 9c5b c73f caca 96f0 4c38 b4bf
000007c0: 2124 939d 6a0a 9bbf 9d68 b835 777c cfbf
000007d0: 2f9f 796d 336d 88bf 56af 688b 3073 c3bf
000007e0: e65a a615 b005 893f 8d52 9596 908a d8bf
000007f0: 9cda e07b dfe8 92bf 44f5 4b4c 7982 86bf

hidden_layer_1_b f8 [1, 64]
0.0 0.23606760906392765 0.0 0.0 0.2222073487961446 -0.0032213375545084863 0.4831223021283753 0.0
0.08190249248789641 -0.0001982304221209711 0.17865559644293602 -0.0037627094090768027 0.4097247560034069 -0.00821322488909489 0.2071264484421127 0.0
0.0 0.0 0.2353140128324991 0.6298280653741031 0.0 0.4464372168763078 0.12762782394441638 0.11533596643221532
0.2197251821720598 -0.0015534724032270982 0.0041975963751056215 0.028684477343158075 -0.0018673652484700004 0.0 0.2309630423090715 0.11919588795357404
0.0 0.17346720910438937 -4.5119727919867374e-05 -0.00015344729183824782 0.5513979494033279 0.2048493168762251 0.2961353371485523 0.19498081063014247
0.43465425757930654 0.030990430043934623 0.16893805893549865 0.27151839602504035 -0.001516694343891004 -0.00627606461753118 0.17599849122410152 0.13142323572854905
0.07122839112443129 0.312763055379119 0.2699717793693253 0.34129409113761056 -0.0050399552669406706 0.0 0.3953572064482063 0.3788498630272245
0.3774403922355102 0.18948862760722993 0.012700573033446488 0.022763559995759953 0.02301975516025619 0.21411801057728252 0.02497577190969559 0.0
00000000: 0000 0000 0000 0000 a488 49a2 7637 ce3f
00000010: 0000 0000 0000 0000 0000 0000 0000 0000
00000020: b551 0158 4a71 cc3f 028e 456e a263 6abf
00000030: bd03 e7cd 79eb de3f 0000 0000 0000 0000
00000040: 5247 b2ce 8ff7 b43f 0db0 335c 82fb 29bf
00000050: e321 fcc3 2fde c63f 7f1b 673b f9d2 6ebf
00000060: 8b5b d92e ee38 da3f eaca 5862 18d2 80bf
00000070: 4806 1995 1e83 ca3f 0000 0000 0000 0000
00000080: 0000 0000 0000 0000 0000 0000 0000 0000
00000090: 58fb b302 c51e ce3f a64f dc2f 8d27 e43f
000000a0: 0000 0000 0000 0000 34dd 8c67 6d92 dc3f
000000b0: 2751 f3c8 1b56 c03f cf00 e16b a886 bd3f
000000c0: 97b0 c46b f41f cc3f a2bf b14a bc73 59bf
000000d0: 6c39 72b2 7f31 713f 09eb 5db0 765f 9d3f
000000e0: 6ed8 ff2a 4c98 5ebf 0000 0000 0000 0000
000000f0: 14ac a66c 3290 cd3f 370a 9428 9f83 be3f
00000100: 0000 0000 0000 0000 3f10 046b 2c34 c63f
00000110: 877c eb0b dea7 07bf d4f7 4033 d61c 24bf
00000120: a699 f84f 0da5 e13f a0b0 4b9e 8038 ca3f
00000130: c18c 0fa1 e1f3 d23f 1784 8096 21f5 c83f
00000140: b2b2 5717 60d1 db3f d956 1c8e f4bb 9f3f
00000150: 75be 1627 c39f c53f ba27 ccb1 8e60 d13f
00000160: dcf9 b826 7ad9 58bf 9462 7a44 eeb4 79bf
00000170: 49f7 f959 1e87 c63f 33be b101 7ad2 c03f
00000180: cb16 6d1a 063c b23f c905 9055 4f04 d43f
00000190: cdfc ceb6 3747 d13f dc42 f02b c3d7 d53f
000001a0: f98d b7b0 c6a4 74bf 0000 0000 0000 0000
000001b0: b9b5 fb4f 884d d93f cff1 f27e 133f d83f
000001c0: c6d1 35bf fb27 d83f 9bbb 44d1 2941 c83f
000001d0: b08a 8d0e c202 8a3f 9da8 e3a6 544f 973f
000001e0: 7508 4d9e 7d92 973f 4cfe 740e 3868 cb3f
000001f0: e490 2dae 3f93 993f 0000 0000 0000 0000

output_layer_w f8 [64, 4]
-0.009257233484325505 0.006727276196292224 0.019486988744047223 0.009016202306890531 -0.8938333965313302 0.5932065168141201 -0.18162616921651614 0.4906615991590937
-0.010779672220285618 -0.0017430331621916867 -0.006392480517802174 -0.0033897126815305633 0.006188386466112864 -0.0013744113360005515 -0.004018837937767243 0.016112676492676403
-0.8322537092073626 0.8376850601806652 -0.543559197926295 0.5456984908358706 0.02107073882531579 -0.00714573753033192 0.002005523596459483 0.010160925192926802
-1.4803053243659714 0.9116518059393484 -0.5301264456454063 1.1242728692048807 -0.0030643724167562655 0.008233054711785946 0.019165278098586546 -0.0042568685186528685
-0.5065447592945315 0.6807181394241348 -0.36072661706952835 0.16443047529146795 -0.006826046398541971 0.010199949495973656 -0.012564689919663679 0.000276337765064091
-0.5549203796677301 -0.12217670048100815 0.37600090708416894 0.2719154490890022 0.003029349829363483 -0.0036338521084150477 0.02220438453105373 -0.016355687626123255
0.9844704055581427 -0.025048979977348906 0.023275218116630005 -0.9633678984377969 -0.006393706028769408 0.011799933879624611 -0.007266231288012616 -0.001836815632100967
-0.5757630301189376 0.3683551327940234 -0.2939124031480298 0.5019708925470533 -0.012092135621421415 0.0018158790936775554 0.014954031413931757 0.0012970565430989694
-0.0018563916317377127 -0.01074656556016423 0.014847385042851888 -0.004162776248855583 0.019552318529089438 -0.0020198427010618466 0.0032741754903781966 -0.009760781249154481
-0.5776325350182131 -0.6227305692268754 0.8399245505575922 0.3619281802633318 1.3411173037587902 -0.0952406960931529 0.2875514069592375 -1.5620589576734927
-0.010835302536983673 -0.017460926041852537 -0.004001734225865018 -0.02173372443660451 -1.3186175282074548 0.4299818571181816 -0.11301504892852679 0.9864847327526612
0.19284508146000365 0.7019792411332251 -0.40559759296954234 -0.4578510235333599 0.1770775058591345 0.6241975089648677 -0.6766730024263535 -0.11096685746848295
-0.7284947015653553 -0.010904469212850746 0.3869978703579432 0.3833401167824232 -0.00019094426646271766 0.006972807112422675 -0.0047607230437890224 -0.0011867324321864813
0.0006824064471515363 0.031039352653901002 -0.02153202510964583 -0.0012623915150543896 -0.0028824860495723476 -0.06629435242008225 -0.040269457175528496 0.11193991244289715
0.0024116882315273203 0.026956942518339265 0.014016636605945158 0.0073866544485324944 -0.019180143336951935 0.005779695030429442 -0.01237185415155226 -0.006836852991630734
-0.8491477986310181 0.6381685653707782 -0.2704759962861791 0.498607943606797 0.3325968791903046 0.4252850038263494 -0.43846147107265854 -0.3332914279298164
-0.0013570815535908366 0.013064318527674342 -0.005007768901783577 -0.00608636917524969 0.5515107750403548 0.5497718565528795 -0.7077721683765918 -0.41491933746351994
0.0027670961870787524 0.011997199939021264 -0.00016080964379569382 -0.012132125234857174 0.00980819921615363 -0.011476084570714763 0.013581895682964593 -0.007580734766494644
-1.5837366085731892 -0.466404872213444 1.0878169268990963 0.9622236123312485 0.3537388725446601 -0.20861919713305663 0.3606569091433284 -0.5054146989563163
-1.061038866481868 0.3201383197086203 0.2092359348524111 0.5363679344300076 -0.41940335796574374 0.2783738344607071 -0.3797457121839286 0.525603904996773
-1.2114985414285495 -0.3870854297726505 0.8425163649846881 0.7871119639073912 -0.163581072487305 0.11182958995465793 0.006089332243743035 0.05431548248286547
0.02564735069667946 0.8116535208034811 -0.8582486984965507 0.03268575842875376 0.55346841724483 -0.7865830006050576 0.8029951572512234 -0.611181828146988
-0.0030229074370846827 0.009462733813455618 -0.011372184828474052 -0.003147216687254459 -0.007015440634454083 -0.018398586621029844 0.00319372483651246 0.00870503198583385
0.37421578877115164 0.432099991835139 -0.29524596561210475 -0.5283638414244687 0.21344957582699212 -0.5049611832261863 0.6050679502267212 -0.2776308558092952
0.30248681091245117 -0.3298875606559917 0.19192285312428853 -0.17220479302517874 -0.7767392731575629 0.010127957859777898 0.07103794702586509 0.6790459018767832
0.5096112138852178 -0.36540395691011635 0.5026629045994894 -0.6396657602446976 0.5520337223403857 -0.6487890920232079 0.9189825399415509 -0.8185322299283052
0.008250458188764914 -0.0021763644738737147 0.005976115085658001 0.0023649301175271593 0.011389774211560445 -0.0035718486845902043 0.0036538599514222116 -0.005718571676502875
-1.2340750103408396 -0.2629336198177163 0.8458402178196597 0.6442677155821473 -1.4201038751229165 0.7325764082934535 -0.05343220992779776 0.7365652216870627
0.9006668249139839 -0.06445758292956716 0.06286584202850447 -0.8817921001163241 0.5540092111596847 0.7816947890408453 -0.8270116297673744 -0.527207791192176
0.10913544546818908 -0.027252875218242847 -0.054576879742841436 0.012412397888864765 -0.1583948383447145 0.7178033844284132 -0.3622215244301358 -0.19185030742080306
0.0059796956409423575 -0.09363838204850244 0.06773974511235582 0.016816056581844922 0.6091988911537969 1.1184786502904707 -1.3362604661749549 -0.4352873648210612
0.13806516270235186 0.004435168462745611 -0.07963440205265337 -0.06972056172044507 -0.01036212920422874 -0.012168845314616402 0.02521363769531698 -0.002350947219656904
00000000: 036d 88d8 74f5 82bf 1158 1174 0f8e 7b3f
00000010: 08ae 69ad 65f4 933f 9a74 5630 1677 823f
00000020: d796 c57e 489a ecbf fab3 af3b 8cfb e23f
00000030: 46fc 70bc 863f c7bf c8a5 72e8 ff66 df3f
00000040: 338b 2e1d a713 86bf 9773 5b9b cf8e 5cbf
00000050: 077b 3a6c 002f 7abf 2e34 8523 bec4 6bbf
00000060: 849a ca57 fe58 793f 7ae7 51ef b284 56bf
00000070: f88e 2b98 0e76 70bf b329 596a d77f 903f
00000080: 6fa6 e087 d2a1 eabf 275c 3ae6 50ce ea3f
00000090: d811 5142 d664 e1bf 5abb 73ae 5c76 e13f
000000a0: 4f10 a158 9193 953f 342a fa4f d944 7dbf
000000b0: 54c3 4248 e36d 603f 51ae 344b 40cf 843f
000000c0: bef1 c3a2 54af f7bf b229 7b68 402c ed3f
000000d0: f355 59bc cbf6 e0bf a33d 508c 05fd f13f
000000e0: e3e7 016a 741a 69bf 0ccc dde5 7ddc 803f
000000f0: 93d3 9b0a 10a0 933f 41c2 2271 a66f 71bf
00000100: a32a e45a 9d35 e0bf 2edc 5368 71c8 e53f
00000110: ce0f c717 2516 d7bf 05da ebcc 0e0c c53f
00000120: 56f7 aee0 a0f5 7bbf 6b68 0c0c b6e3 843f
00000130: 968f 5022 84bb 89bf 93b0 e1a9 2d1c 323f
00000140: 57d1 5162 e8c1 e1bf 902c e6e4 f846 bfbf
00000150: 7f57 cc1b 6610 d83f 9e52 470e 1067 d13f
00000160: 8490 3fce 01d1 683f 0043 da7e bdc4 6dbf
00000170: 3203 8e05 bfbc 963f 3bc7 d49d 8bbf 90bf
00000180: 0911 7814 c880 ef3f e317 3497 70a6 99bf
00000190: 7a07 7972 75d5 973f 90cf 39ea e8d3 eebf
000001a0: 666a b364 4930 7abf f214 dd50 902a 883f
000001b0: 7579 f41b 32c3 7dbf ded8 64c4 2918 5ebf
000001c0: 166a 1397 a66c e2bf 1580 2a68 2193 d73f
000001d0: 2836 daf7 75cf d2bf a112 e142 2510 e03f
000001e0: 7e2d 43f8 c2c3 88bf 7390 8854 59c0 5d3f
000001f0: e0f6 ed1e 38a0 8e3f ee4b c1db 3f40 553f
00000200: ae4e 3356 456a 5ebf 1e76 009d 4b02 86bf
00000210: 0577 8549 4e68 8e3f c124 97bd fc0c 71bf
00000220: 1cdb 92e2 8505 943f 4c12 03cb ea8b 60bf
00000230: b799 e194 71d2 6a3f 86fc fce1 75fd 83bf
00000240: 1748 e039 f77b e2bf 8a90 a1a8 68ed e3bf
00000250: 4f13 7873 a9e0 ea3f dbd5 6ed0 d429 d73f
00000260: 34e6 fb6a 3775 f53f e1e6 f7ba b161 b8bf
00000270: efc1 3304 3e67 d23f 9f1a 9a88 31fe f8bf
00000280: 2113 4fb0 d130 86bf b803 3be9 46e1 91bf
00000290: 75b9 095a 1f64 70bf 47b4 b38e 5d41 96bf
000002a0: 8255 79b1 0e19 f5bf 328a 8c9f d284 db3f
000002b0: ba96 1ae3 8dee bcbf a1a1 256e 4891 ef3f
000002c0: 8b57 08cb 25af c83f 506b 642b 9d76 e63f
000002d0: 04fe 489b 4ff5 d9bf 9f04 2161 6e4d ddbf
000002e0: 78d8 42c8 79aa c63f f4f5 e70d 6df9 e33f
000002f0: f13b f023 4ea7 e5bf ec5b c4ef 5268 bcbf
00000300: 160a d11e d44f e7bf d509 3215 1555 86bf
00000310: e2c6 33b7 92c4 d83f 2ed2 34fc a488 d83f
00000320: e540 77c2 0607 29bf 1a91 25a8 848f 7c3f
00000330: 6046 74dc fa7f 73bf 14de 0f3f 8471 53bf
00000340: 1097 c1af 705c 463f 7e6a 26b2 c7c8 9f3f
00000350: 487b a6be 7d0c 96bf 80ea 6691 daae 54bf
00000360: 5b05 0dea 029d 67bf acc2 8dab aaf8 b0bf
00000370: 4971 31c3 329e a4bf 5931 0f17 18a8 bc3f
00000380: 8050 a442 adc1 633f 26d0 10ca 999a 9b3f
00000390: 2261 941e c1b4 8c3f 8f65 88f4 7741 7e3f
000003a0: 5c8e 75a1 f5a3 93bf 244d 2f12 73ac 773f
000003b0: 713e c627 6a56 89bf 0917 1bc0 f500 7cbf
000003c0: 54e6 1201 382c ebbf 9149 b37b e06b e43f
000003d0: efbc 998d 7a4f d1bf d149 d44a 31e9 df3f
000003e0: f7ef b76b 4449 d53f 3c75 ba97 de37 db3f
000003f0: 220a b4b3 c00f dcbf 97b9 bf91 a554 d5bf
00000400: 43dc 0039 033c 56bf d12d 9126 77c1 8a3f
00000410: 139e 8bba 0683 74bf c7fd f148 05ee 78bf
00000420: f713 c6ec f9a5 e13f 7cfc 0426 bb97 e13f
00000430: 7649 86d1 11a6 e6bf 4690 38d6 098e dabf
00000440: 61c4 1b74 05ab 663f c0a8 0deb fc91 883f
00000450: ce7b 6c52 e013 25bf 7be1 ea48 bad8 88bf
00000460: 8aa2 ed36 5216 843f a7bb 56ff c580 87bf
00000470: 2548 352e d3d0 8b3f d88b 6dfe f90c 7fbf
00000480: fccb b432 fc56 f9bf e983 36d2 93d9 ddbf
00000490: c811 d1b8 b267 f13f afda 4c2c 89ca ee3f
000004a0: 7ace 395e a8a3 d63f 6f8b 80aa 08b4 cabf
000004b0: e235 76b7 0015 d73f 0bec 5d72 5b2c e0bf
000004c0: 4a31 f5e3 03fa f0bf 1c13 566f 257d d43f
000004d0: 6067 ab3c 3ec8 ca3f a2ff 1f16 ed29 e13f
000004e0: a9e8 922e 81d7 dabf e388 c47c e0d0 d13f
000004f0: b213 a8f5 c04d d8bf 918d d347 bfd1 e03f
00000500: ab65 694b 4c62 f3bf c46c 68f7 01c6 d8bf
00000510: 7487 3ee1 e4f5 ea3f f5b8 e86d 0530 e93f
00000520: 27ee 497e 39f0 c4bf 8d91 942f dda0 bc3f
00000530: 4730 76ad 20f1 783f 3459 dc29 3dcf ab3f
00000540: 8397 e291 4c43 9a3f 3918 f1cd 10f9 e93f
00000550: 6e12 7cf9 c576 ebbf 2f2f fe0e 30bc a03f
00000560: 05ef ed65 03b6 e13f 5006 e61c b02b e9bf
00000570: 35b1 67e6 22b2 e93f 33a0 7931 cd8e e3bf
00000580: 287c 9812 7fc3 68bf 758c 13a2 3261 833f
00000590: 1300 61cf 4c4a 87bf c78a d817 31c8 69bf
000005a0: 3fdf 7801 39bc 7cbf 73dd 513f 14d7 92bf
000005b0: d432 35f7 b929 6a3f cab0 849d f1d3 813f
000005c0: ebcf 9ac7 26f3 d73f 9929 62b9 86a7 db3f
000005d0: 951d a555 4fe5 d2bf 22d3 6949 5be8 e0bf
000005e0: 01d1 c2d1 5052 cb3f 0397 f65a a428 e0bf
000005f0: d79b 4276 b75c e33f 37ee 8335 b4c4 d1bf
00000600: b3c7 15a4 f15b d33f 18fb 17b7 e01c d5bf
00000610: e20c c394 ed90 c83f c3f8 2081 ce0a c6bf
00000620: 9c60 f751 0cdb e8bf ea9b 437e f7bd 843f
00000630: 3146 40fb 8a2f b23f 3e65 a178 beba e53f
00000640: dafa 292d bc4e e03f 2382 3047 c762 d7bf
00000650: 7f59 0584 d015 e03f 0ae7 1354 2478 e4bf
00000660: 1ab7 f79f 42aa e13f 03b8 8757 e1c2 e4bf
00000670: 719b 5412 4e68 ed3f e172 c880 6a31 eabf
00000680: c336 c8c0 9de5 803f 18b0 a9c7 2ad4 61bf
00000690: 93bc 992d 697a 783f 2829 6330 9e5f 633f
000006a0: dad4 fa9d 8553 873f 7ba0 2ba9 b542 6dbf
000006b0: 1a52 db1f b3ee 6d3f d25d 4965 5b6c 77bf
000006c0: a698 2370 c5be f3bf 0bb4 8888 e7d3 d0bf
000006d0: 9da9 2581 1f11 eb3f 0f68 0954 d79d e43f
000006e0: 7436 49d7 beb8 f6bf fb20 6e14 4471 e73f
000006f0: 83c3 6274 775b abbf a58a 503a f191 e73f
00000700: 8320 b33b 43d2 ec3f 1865 a9ca 4a80 b0bf
00000710: 1345 8ccf f917 b03f 59dd fb10 a437 ecbf
00000720: a5a2 7386 71ba e13f 234a 4cca a403 e93f
00000730: ac66 e817 e176 eabf c4bc abdf e2de e0bf
00000740: 97c9 1ef1 4cf0 bb3f 4725 237f 2de8 9bbf
00000750: 22f9 3933 80f1 abbf d81c fbd7 ab6b 893f
00000760: 51db 4535 4846 c4bf 3580 a2cd 3ef8 e63f
00000770: b26b 5530 a32e d7bf 5ec9 0c06 8d8e c8bf
00000780: fb70 7c53 2a7e 783f bc75 8c5c aff8 b7bf
00000790: 219e e555 6457 b13f 7e4f 4474 3a38 913f
000007a0: 0e7b 48ac 8e7e e33f 4359 84de 49e5 f13f
000007b0: dc8b 92a7 5261 f5bf c12e 1189 bfdb dbbf
000007c0: b602 4387 1eac c13f 82f2 fe77 9c2a 723f
000007d0: a0e1 7390 eb62 b4bf 21b4 72ec 34d9 b1bf
000007e0: be88 6470 bd38 85bf d139 40c5 faeb 88bf
000007f0: 1021 4295 9ad1 993f 139d 892d 4b42 63bf

output_layer_b f8 [1, 4]
-0.3274921074714421 0.16359829107240428 0.2677991847659502 -0.10390536836691242
00000000: f46d d274 a1f5 d4bf 0f32 ebee c9f0 c43f
00000010: 20c6 1d31 9f23 d13f cec4 03cf 8a99 babf
